experiments/b_e_MLP_results/mlp_model.pth (torch, 45928 bytes, 5 tensors)

fc1.weight f4 [100, 6]
0	0xbe1b4a1e	-0.15164992
1	0xbe94909f	-0.29016587
2	0x3e8bf7d1	0.27337506
3	0x3d8e9003	0.06961062
4	0x3d83434a	0.06409319
5	0x3cb8b8e4	0.0225491
6	0x3e1c530c	0.15266055
7	0xbf63ea2b	-0.89029187
8	0x3f5bb392	0.8582088
9	0xbd725b1f	-0.05916893
10	0xbc20681d	-0.009790448
11	0x3cd60b4d	0.026128436
12	0x3e0ae737	0.13564764
13	0xbddd43ea	-0.10803969
14	0xbdbe80d1	-0.093019135
15	0x3dec7883	0.11546423
16	0x3d8d005f	0.068848364
17	0xbc1d75e8	-0.009610631
18	0xbb8928b6	-0.0041857613
19	0xbe30ad65	-0.17253645
20	0xbe82c4ce	-0.25540775
21	0x3ab8e2db	0.0014105694
22	0x3c4369d5	0.011927088
23	0xbcbcb73e	-0.023036595
24	0xbe2f5206	-0.17121133
25	0xbd872262	-0.06598355
26	0x3e9455d9	0.28971747
27	0x3e6393ef	0.22224401
28	0xbea17196	-0.31531972
29	0xbefbf452	-0.4920984
30	0x3c0efaae	0.008726759
31	0x3e5c1993	0.21494131
32	0xbe96caf5	-0.2945172
33	0x3e185474	0.14875966
34	0x3c5bbac9	0.013411232
35	0x3dd5f0ce	0.104463205
36	0x3d332595	0.043737013
37	0x3f6fccba	0.9367176
38	0x3ec5e8be	0.3865413
39	0xbcdcddf1	-0.026961299
40	0x3d04fa9b	0.03246556
41	0x3b79dd0b	0.0038126137
42	0x3eec15a4	0.4611026
43	0xbd9f2e2f	-0.07772481
44	0x3dc19330	0.09451902
45	0x3f01ea80	0.50748444
46	0x3efc257b	0.49247345
47	0x3ef18d60	0.47178173
48	0xbd0d9dce	-0.034574322
49	0xbd2e923a	-0.04261992
50	0xbbc40eba	-0.005983201
51	0x3d0f4648	0.034979135
52	0x3c8c9cd0	0.017164618
53	0xbc02b778	-0.007978313
54	0xbca13006	-0.01967622
55	0x3dfe412f	0.124147765
56	0x3c23a1d7	0.009987316
57	0x3bf6a048	0.007526431
58	0x3be61a61	0.0070221876
59	0x3cb680ab	0.02227815
60	0x3da6f8ee	0.08152948
61	0x3dc2cbe9	0.09511549
62	0xbde53c1a	-0.11193104
63	0x3daf643c	0.0856404
64	0xbd968307	-0.0734921
65	0x3cddf4d3	0.02709428
66	0xbd355dfa	-0.044279076
67	0x3d87c536	0.06629412
68	0xbe6bddf0	-0.23033881
69	0x3d6e2297	0.058138456
70	0x3d82cf85	0.063872375
71	0x3dc5315b	0.096285544
72	0x3dd61357	0.104529075
73	0xbd8f25e8	-0.06989652
74	0x3dbce1cd	0.092227556
75	0x3dcc088d	0.099625684
76	0x3e1785ed	0.14797182
77	0x3e08d44c	0.13362235
78	0xbcdca208	-0.026932731
79	0xbde66ac2	-0.11250831
80	0x3dffd54d	0.12491856
81	0x3ba2e7bd	0.004971473
82	0x3c79856f	0.015229567
83	0x3ca2b139	0.019859897
84	0x3d864307	0.06555753
85	0x3b7e7e69	0.003883267
86	0xbe977d39	-0.29587725
87	0xbce3a385	-0.027787933
88	0xbcf714a6	-0.030161213
89	0xbd36c959	-0.044625614
90	0x3d646e6f	0.05576938
91	0x3f108c12	0.5646373
92	0xbec46c8c	-0.38364065
93	0x3d800246	0.062504336
94	0x3c5f7425	0.013638531
95	0x3e00e7fd	0.12588497
96	0xbd93d3ea	-0.07218154
97	0xbc9adbfb	-0.018903723
98	0xbdbd4465	-0.09241561
99	0x3dadf7fa	0.084945634
100	0x3d87533c	0.066076726
101	0xbcbad2f6	-0.022805672
102	0x3d02a058	0.031891197
103	0xbe18b58e	-0.14913008
104	0x3d78fa73	0.060785722
105	0x3dd4d103	0.10391428
106	0x3ca243b9	0.019807683
107	0xbd782a22	-0.060587056
108	0x3d00ca21	0.031442765
109	0x3d231e87	0.039824035
110	0x3d124af8	0.035716027
111	0xbb1588fc	-0.0022817245
112	0x3d96d53d	0.07364891
113	0x3d41d122	0.047318585
114	0xbd3b32c8	-0.045702726
115	0x3df3b646	0.119
116	0xbe043931	-0.12912442
117	0xbd276ec5	-0.040877122
118	0x3d0aeff5	0.033920247
119	0x3d37cdca	0.04487399
120	0xbdce9bfa	-0.10088344
121	0xbd12bcb7	-0.035824504
122	0xbe11c50b	-0.14235322
123	0x3dd8998b	0.10576161
124	0x3cdab8a8	0.02669938
125	0xbcc29c13	-0.023756063
126	0x3db6fa2e	0.08934437
127	0xbc3bec68	-0.011469938
128	0xbd4479ff	-0.047967907
129	0x3de2855f	0.11060595
130	0x3dd0487d	0.10170076
131	0x3e00adc3	0.12566285
132	0xbccd0d52	-0.025030766
133	0x3dd2f800	0.103012085
134	0xbd4d4d6c	-0.050122663
135	0x3d919b6e	0.07109724
136	0x3d2de62a	0.04245583
137	0xbd1da024	-0.0384828
138	0xbba70bcb	-0.0050978414
139	0x3d401771	0.046897355
140	0xbd20f9a4	-0.039300576
141	0x3d450d8f	0.048108634
142	0xbd45906e	-0.048233442
143	0xbd1792eb	-0.037005346
144	0x3b4fe9ec	0.0031725122
145	0xbe0c0a64	-0.13675839
146	0x3d510a84	0.05103542
147	0xb9d5cc17	-0.00040778585
148	0xbcb159b7	-0.021649225
149	0x3c3413ce	0.01099105
150	0xbd5970af	-0.05308598
151	0xbde459c5	-0.11149935
152	0xbe33037a	-0.17481795
153	0x3c60ee02	0.0137286205
154	0xbde7da8a	-0.1132098
155	0xbd8cb459	-0.06870336
156	0x3b3d91c3	0.0028925992
157	0xbdb3b99e	-0.08775638
158	0x3e200c85	0.15629776
159	0x3c65bc78	0.014021985
160	0x3cae83a9	0.021303015
161	0xbc92a4ac	-0.017900787
162	0xbcab034f	-0.020875601
163	0x3f5b2a16	0.85611093
164	0x3f58ff54	0.847646
165	0xbc96f590	-0.01842764
166	0x3c581089	0.013187536
167	0x3995fc10	0.00028607296
168	0x3b10d523	0.0022099696
169	0xbe26402c	-0.16235417
170	0x3dfb71bb	0.12277552
171	0x3b761b79	0.0037552996
172	0x3bf21f9f	0.0073890234
173	0x3b83fa69	0.004027654
174	0x3e0e0296	0.13868174
175	0x3e148d70	0.14507079
176	0x3dd8a817	0.105789356
177	0xbc9dd424	-0.019266196
178	0x3d813b89	0.063101836
179	0xbd76bf6f	-0.06024116
180	0xbccf702e	-0.025322046
181	0xbe133108	-0.14374173
182	0x3dff6251	0.12469924
183	0x3b27e298	0.0025617238
184	0x3c85ca39	0.016331779
185	0x3c42c0e5	0.01188681
186	0xbd8f61cc	-0.07001075
187	0xbd801d3b	-0.06255575
188	0xbe068e57	-0.13140236
189	0x3db10f03	0.086454414
190	0x3db4c224	0.08826092
191	0x3d38697f	0.045022484
192	0x3d2d8afa	0.042368867
193	0x3c606e92	0.013698237
194	0xbdb99c3e	-0.09063004
195	0xbc31d549	-0.010854074
196	0x3dd80bc5	0.1054912
197	0x3d30f090	0.04319817
198	0x3dbcdd0f	0.09221851
199	0xbd09fa3c	-0.033685908
200	0x3e6b5041	0.22979833
201	0xbd2e6e98	-0.04258594
202	0x3d3203d5	0.043460686
203	0x3d3c4d74	0.045972303
204	0xbcba4348	-0.02273716
205	0xbdf641d9	-0.12024278
206	0xbcbf55b9	-0.023356305
207	0x3cb02235	0.021500686
208	0x3bdd9d02	0.0067631016
209	0x3dc77db0	0.0974077
210	0x3ef2844c	0.4736656
211	0x3efe48b6	0.4966485
212	0xbf60ea34	-0.87857366
213	0x3ed2b03d	0.41150084
214	0xbf004ace	-0.5011414
215	0x3e46ac4b	0.19401662
216	0xbbb25649	-0.005442415
217	0x3e5cff05	0.21581657
218	0x3e066407	0.13124095
219	0xbcdee0f1	-0.02720687
220	0x3cc5b3c5	0.024133572
221	0x3d2026d0	0.039099514
222	0xbd615a5a	-0.055017807
223	0x3d43fbf7	0.047847714
224	0xbd2228b8	-0.039589614
225	0x3d1e67a3	0.038673054
226	0x3d5c1b52	0.053736992
227	0x3d302edb	0.043013435
228	0xbd272c42	-0.040813692
229	0x3ea67b22	0.32515818
230	0xbe7dcd88	-0.24785435
231	0x3d288d44	0.041150346
232	0x3d2da0fa	0.042389847
233	0x3d39b37b	0.04533718
234	0xbf3e788d	-0.74402696
235	0x3e6f41d6	0.23364958
236	0xbf3b0dbe	-0.73067844
237	0xbd8a97bd	-0.06767223
238	0x3dc2014d	0.09472904
239	0x3f3e9319	0.74443203
240	0xbc8b8bba	-0.0170344
241	0x3d37d1c4	0.044877782
242	0xbe67364d	-0.22579308
243	0x3d76d6a5	0.060263295
244	0x3d10d6b7	0.035361018
245	0xbc40fed8	-0.0117795095
246	0xbca1abb4	-0.019735195
247	0xbdf4ffce	-0.11962853
248	0x3c5687f5	0.013093938
249	0x3caf461e	0.02139574
250	0x3c5143e1	0.012772531
251	0xbd2f3315	-0.042773325
252	0x3a8e7c0e	0.0010870711
253	0x3e2c4791	0.16824175
254	0xbe699542	-0.22810844
255	0x3d082179	0.033235047

fc1.bias f4 [100]
0	0xbf1bb0dc	-0.6081674
1	0xbea3f3a1	-0.32021812
2	0xbf083b47	-0.5321545
3	0xbf0eff8f	-0.558587
4	0xbf19a778	-0.6002116
5	0xbf520c85	-0.82050353
6	0x3ea07cc9	0.31345204
7	0xbfab3d41	-1.3378068
8	0xbe23a025	-0.15979059
9	0xbe48eef7	-0.19622408
10	0xbef50391	-0.47854283
11	0xbf170ce3	-0.5900404
12	0xbf484ca4	-0.78241944
13	0xbe9bdd2e	-0.30442184
14	0xbf0a96a2	-0.541361
15	0xbf3e3884	-0.74304986
16	0xbeda5d07	-0.426491
17	0xbedccda0	-0.4312563
18	0xbe827494	-0.25479567
19	0xbed3b705	-0.4135057
20	0xbef5b84b	-0.47992167
21	0xbf023f04	-0.50877404
22	0xbebfac43	-0.37436113
23	0xbe6611b3	-0.22467689
24	0xbe683cbf	-0.22679423
25	0xbf094aea	-0.53629935
26	0xbeb6d1bf	-0.357069
27	0xbde9c9ef	-0.11415469
28	0xbe9ee7ae	-0.31036133
29	0xbf09b5ec	-0.53793216
30	0xbea62ac7	-0.32454512
31	0xbefa2bbf	-0.488615
32	0xbed81b95	-0.42208543
33	0xbef9c402	-0.48782355
34	0xbea02c13	-0.31283626
35	0xbfff7130	-1.9956417
36	0xbefe0160	-0.49610424
37	0xbea5da0e	-0.32392925
38	0xbf2a35d7	-0.66488403
39	0xbf9f9bd8	-1.2469435
40	0xbee02a0a	-0.43782073
41	0xbe6afcb1	-0.22947957
42	0xbf027f5b	-0.5097558
43	0xbef51637	-0.4786851
44	0xbe4ecafd	-0.20194621
45	0xbf3ad0dd	-0.7297495
46	0xbf3cda18	-0.73770285
47	0xbe714fb2	-0.23565558
48	0xbf556ffd	-0.83374006
49	0xbebf3760	-0.37346935
50	0xbf4fa4f0	-0.8111105
51	0xbe8075b8	-0.25089812
52	0xbeb80e3f	-0.3594837
53	0xbf1747ba	-0.5909382
54	0xbf111f09	-0.5668798
55	0x3e9a1f1f	0.3010187
56	0xbf5b69ad	-0.85708123
57	0xbebcfe40	-0.36912727
58	0x3e0b93de	0.13630626
59	0xbeb54d24	-0.35410416
60	0xbd33bc9f	-0.043881055
61	0xbecaced8	-0.39610934
62	0xbf0159d6	-0.50527704
63	0xbe8cd6f8	-0.27507758
64	0xbeb106c3	-0.3457547
65	0xbe773cec	-0.24144334
66	0xbeed82b5	-0.46388784
67	0xbeed5bd0	-0.4635911
68	0xbf15aebc	-0.5846975
69	0xbe86a5f4	-0.26298487
70	0x3e96653b	0.29374108
71	0xbea43621	-0.32072547
72	0xbe0bb476	-0.13643059
73	0xbfd32ba9	-1.6497699
74	0xbee111cd	-0.43958893
75	0xbe46134d	-0.193433
76	0xbe9cd5fa	-0.30632
77	0xbe91e454	-0.28494513
78	0xbedfc97a	-0.43708402
79	0xbea23c68	-0.3168671
80	0xbeab0dd3	-0.33408985
81	0xbee98855	-0.45611826
82	0xbf27bf5d	-0.6552637
83	0xbf1dd8f2	-0.6165916
84	0xbed8021c	-0.4218911
85	0xbe218a74	-0.15775472
86	0xbee4c732	-0.44683224
87	0xbea1b273	-0.31581458
88	0xbef0a6af	-0.4700217
89	0xbeb29147	-0.34876463
90	0xbf1766a8	-0.59141016
91	0xbeafcb44	-0.34334767
92	0xbf2dca75	-0.6788705
93	0xbf1dfbf2	-0.61712563
94	0xbe913939	-0.2836397
95	0x3e892fc8	0.26794267
96	0x3aadfb88	0.0013273815
97	0xbe6b7755	-0.2299474
98	0xbed27947	-0.41108152
99	0xbe588b67	-0.21146928

fc2.weight f4 [100, 100]
0	0xbcad5310	-0.021157771
1	0x3bfdef56	0.0077494783
2	0xbe2009a4	-0.15628678
3	0x3c2b9616	0.010472795
4	0x3d6c2405	0.05765154
5	0xbbb28ce9	-0.0054489267
6	0x3ca730f1	0.02040908
7	0xbdf9d37d	-0.12198541
8	0xbd803dcf	-0.06261789
9	0x3d2b73da	0.04185853
10	0xbd271276	-0.04078909
11	0xbda4e901	-0.080522545
12	0xbcc6493d	-0.024204845
13	0xbe00d47a	-0.12581053
14	0xbe2cf810	-0.16891503
15	0xbc3dc1dd	-0.011581865
16	0xbd8707c4	-0.06593278
17	0x3c9d76f8	0.019221768
18	0xbddc512e	-0.10757671
19	0xbd7995a6	-0.06093373
20	0xbe2e4b19	-0.17020835
21	0xbdfa4058	-0.12219304
22	0xbd8931d7	-0.06698959
23	0xbbde8666	-0.006790924
24	0xbdc2a9ec	-0.09505066
25	0xbd1d6519	-0.038426492
26	0xbd04a164	-0.032380477
27	0x3dbad66b	0.09122928
28	0xbd8636a4	-0.065533906
29	0x3da1fccb	0.079095446
30	0xbd98e9b2	-0.07466449
31	0xbd03f128	-0.032212406
32	0x3cd4174a	0.025890011
33	0x3d251c0f	0.040309962
34	0xbd8e8f00	-0.06960869
35	0xbe0f1d1d	-0.1397595
36	0xbcc2c3d4	-0.023775019
37	0x3c851c9a	0.01624899
38	0xbcd045db	-0.025423935
39	0xbe05f6de	-0.13082454
40	0xbd672296	-0.056429468
41	0x3bf25119	0.0073949215
42	0xbdcb441e	-0.09925102
43	0xbe234cb7	-0.15947233
44	0xbd085769	-0.033286486
45	0xbd8b1b19	-0.06792278
46	0xbd453099	-0.04814205
47	0x3d9ca2f0	0.07648265
48	0xbd2e12bd	-0.04249834
49	0xbdc806b1	-0.09766901
50	0x3d1a6b3f	0.037699934
51	0xbe11968f	-0.1421759
52	0xbd295fb8	-0.04135105
53	0xbdd3dd69	-0.10344965
54	0xbe5fb78a	-0.21847358
55	0x3ceb23fb	0.02870368
56	0xbd042e73	-0.03227086
57	0x3dac9501	0.08426858
58	0xbdcb47e2	-0.0992582
59	0xbdd0f7ed	-0.10203538
60	0x3d3494ab	0.044087093
61	0xbcc79466	-0.024362754
62	0xbe4a7210	-0.19770074
63	0xbd99423f	-0.074833386
64	0xbe04615f	-0.12927769
65	0xbbfc4633	-0.007698798
66	0xbe24aff0	-0.1608274
67	0xbb932b3f	-0.0044912393
68	0x3d2ec292	0.042666025
69	0x3c709154	0.014683086
70	0xbe1188e3	-0.14212374
71	0xbdb521c1	-0.08844329
72	0xbdb027c8	-0.08601338
73	0xbdfa7777	-0.12229817
74	0xbc806e3c	-0.015677564
75	0xbd32a180	-0.04361105
76	0xbd7230c3	-0.059128534
77	0x3dc1b0f6	0.09457581
78	0xbd9390f1	-0.0720538
79	0xbe140718	-0.14455831
80	0xbdc7e81a	-0.09761067
81	0xbcd3c1ae	-0.02584919
82	0xbd581e73	-0.052763414
83	0xbcba34b2	-0.022730205
84	0xbdb1a465	-0.08673934
85	0xbd886edf	-0.06661772
86	0x3d68f359	0.0568727
87	0xbe13925c	-0.144113
88	0xbc2b4f12	-0.010455864
89	0xbd87af30	-0.06625211
90	0xbd99edac	-0.075160354
91	0x3cb9309a	0.022606183
92	0xbde4071c	-0.111341685
93	0x3dc4157d	0.09574411
94	0xbdf2cf19	-0.11855907
95	0xbe19b376	-0.15009865
96	0xbb015443	-0.0019734062
97	0xbdbacb8c	-0.09120855
98	0x3d23a5e4	0.039953128
99	0xbdbeaee1	-0.09310699
100	0xbbe2a592	-0.00691671
101	0x3da4ded8	0.080503166
102	0x3d9ba248	0.07599312
103	0xbd761533	-0.06007881
104	0xbc9a1db8	-0.018813
105	0xb8cc2a56	-9.735364e-05
106	0x3d1318d1	0.03591234
107	0x3c2f117a	0.010685319
108	0x3a407dea	0.00073429814
109	0xbd5f050a	-0.054448165
110	0xbe0528b7	-0.13003813
111	0xbdd1985c	-0.10234138
112	0xbe089e46	-0.13341627
113	0xbe0d0c9d	-0.13774343
114	0xbcf76a80	-0.03020215
115	0xbc711ce3	-0.01471636
116	0xbe09f9d5	-0.1347421
117	0xbdeea1b2	-0.11651935
118	0xbe26b811	-0.16281153
119	0xbd3df452	-0.04637558
120	0xbe27d220	-0.1638875
121	0xbdf99b5c	-0.121878356
122	0xb993bf09	-0.00028180357
123	0xbe3b776c	-0.18307275
124	0x3c9a5394	0.018838681
125	0x3d5c2b5d	0.053752292
126	0xbdf50f40	-0.11965799
127	0x3a4da89a	0.0007845253
128	0xbd969971	-0.073534854
129	0xbc6cc2bc	-0.014450725
130	0xbc335bcc	-0.010947179
131	0x3d285f68	0.04110661
132	0xbe232b14	-0.15934402
133	0xbdd96f05	-0.106168784
134	0xbcaab3bc	-0.020837657
135	0xbc7cae65	-0.015422438
136	0x3c92f9c8	0.01794137
137	0xbd9d189d	-0.0767071
138	0xbe11e8e6	-0.14249
139	0xbd344930	-0.04401511
140	0xbd8e0e54	-0.069363266
141	0x3c23b80c	0.009992611
142	0xbe03286e	-0.12808391
143	0x3c1d0e21	0.009585888
144	0xbd90a6c0	-0.07063055
145	0xbdbcb175	-0.09213535
146	0xbc12c994	-0.008959193
147	0xbd0e0a76	-0.034677945
148	0xbd856c81	-0.06514836
149	0xbe0ce838	-0.1376046
150	0xbd703b6e	-0.058650427
151	0xbdda4e28	-0.10659438
152	0xbd9d27d2	-0.07673611
153	0xbde509ac	-0.111834854
154	0x3d26cb4f	0.040721234
155	0xbc07cadf	-0.008288114
156	0xbce20c86	-0.027593862
157	0x3cf903dc	0.030397348
158	0xbdb14938	-0.086565435
159	0x3bc3fdda	0.005981189
160	0xbe03e973	-0.12882023
161	0xbde5c6cb	-0.112195574
162	0xbe1b296a	-0.15152517
163	0x3d463a49	0.04839543
164	0xbc9a5c9e	-0.018842991
165	0x3b6764eb	0.0035307955
166	0x3d04b47d	0.03239869
167	0xbdad1175	-0.08450595
168	0x3cec5e1b	0.028853467
169	0xbe21a8d2	-0.15787056
170	0xbe0b1119	-0.13580741
171	0xbe3c4480	-0.18385506
172	0xbdabae1f	-0.0838282
173	0xbe028ea0	-0.1274972
174	0xbdffb682	-0.124859825
175	0xbccd8212	-0.025086436
176	0xbd116370	-0.03549522
177	0x3c4ff1fb	0.01269197
178	0xbb7f970d	-0.0038999945
179	0xbe01860a	-0.12648788
180	0xbdbac20b	-0.09119042
181	0xbe0c3dbf	-0.1369543
182	0xbdb02d5f	-0.08602404
183	0xbdaed301	-0.085363396
184	0x3bf3c821	0.0074396287
185	0xbc4952c2	-0.012287797
186	0xbc85cfd4	-0.016334452
187	0xbd83307d	-0.06405733
188	0xbcb170d4	-0.021660246
189	0xbd9b65f0	-0.075878024
190	0xbc9933cb	-0.018701455
191	0xbe12d359	-0.14338435
192	0xbc1b3b9b	-0.00947466
193	0x3da27eeb	0.07934364
194	0xbca7876f	-0.020450322
195	0xbd6ca41e	-0.0577737
196	0x3d0a88df	0.033821937
197	0xbde39a5d	-0.11113427
198	0xbd4b8999	-0.04969177
199	0xbdc43d8c	-0.09582052
200	0xbeae6985	-0.3406488
201	0xbe27da5d	-0.16391893
202	0x3c15fbcb	0.00915427
203	0xbc1bbffa	-0.00950622
204	0xbe1f1d9d	-0.1553864
205	0xbcea6dd5	-0.028616825
206	0xbe8c443f	-0.27395818
207	0xbe26d5b1	-0.16292454
208	0x3ab7a577	0.0014011104
209	0xbb48c927	-0.0030637474
210	0x3dc78d0a	0.09743698
211	0xbd6f7cee	-0.05846875
212	0xbd9ea64c	-0.07746562
213	0xbde98e26	-0.11404066
214	0xbd0a1193	-0.033708166
215	0xbd8a9c3e	-0.06768082
216	0x3d9517b6	0.07279913
217	0xbda314e5	-0.0796297
218	0xbdf9e34f	-0.12201559
219	0x3c7fdfa0	0.015617281
220	0xbe5a6fec	-0.21331757
221	0xbd1942de	-0.037417285
222	0xbe109766	-0.14120254
223	0x3e006b3b	0.12540905
224	0xbd058d22	-0.032605298
225	0xbd42c6d4	-0.0475529
226	0x3d0d08b9	0.034432147
227	0xbe168a9c	-0.14701313
228	0xbd1abce4	-0.037777796
229	0xbca2a38f	-0.019853381
230	0xbd56f2d8	-0.052477688
231	0xbd6b7b2f	-0.057490524
232	0x3d8c739d	0.06857989
233	0xbd8c580b	-0.0685273
234	0xbd9ac5c8	-0.07557255
235	0x3d6ee7d1	0.058326546
236	0xbe952c5f	-0.29135415
237	0x3df03299	0.11728401
238	0xbd098686	-0.033575557
239	0xbc0384be	-0.008027254
240	0x3be70594	0.0070502255
241	0x3d4579fc	0.048212036
242	0xbcc00c90	-0.02344349
243	0xbdca2e98	-0.09872168
244	0x3d85edff	0.06539535
245	0x3dfc2dea	0.12313445
246	0x3d5922b4	0.05301161
247	0xbb2e5f13	-0.0026606962
248	0x3ca2472e	0.019809332
249	0x3db05b0d	0.086111166
250	0xbdaf4746	-0.08558516
251	0xbe81894a	-0.25300056
252	0xbc87be2f	-0.016570179
253	0xbc8b41bb	-0.016999116
254	0xbebc108a	-0.36731368
255	0xbe9523dc	-0.2912892

fc2.bias f4 [100]
0	0xbe578e4d	-0.21050377
1	0xbdc5a45c	-0.0965049
2	0xbd878684	-0.06617454
3	0xbd243fda	-0.040099956
4	0xbdf1fff4	-0.11816397
5	0x3b8a1b6c	0.0042146947
6	0xbdc0ecf9	-0.09420199
7	0xbe1085cd	-0.14113541
8	0xbe0f34cc	-0.13984984
9	0x3d62da2f	0.055383857
10	0xbeee8da7	-0.46592447
11	0xbdedc139	-0.1160912
12	0xbd517737	-0.051139083
13	0x3f1fd546	0.62434804
14	0xbed09892	-0.40741402
15	0xbddc3ece	-0.107541665
16	0x3dd6ca01	0.10487748
17	0xbddb8148	-0.10718018
18	0xbe64e245	-0.2235194
19	0xbd7a2646	-0.061071657
20	0xbe05e456	-0.13075384
21	0x3a9c91ef	0.0011945347
22	0xbe53229c	-0.20618671
23	0xbdbd5581	-0.09244824
24	0x3e9d72c5	0.30751625
25	0x3c8e37af	0.017360536
26	0x3d9a40d3	0.075318955
27	0xbdbd0fb6	-0.09231512
28	0xbafe6a39	-0.0019410319
29	0xbd580d2f	-0.052746948
30	0xbdddffe2	-0.108398214
31	0x3e41fe83	0.18944745
32	0xbd89854f	-0.0671488
33	0xbe69ff78	-0.2285136
34	0x3cc8ade8	0.024496987
35	0xbd88aeaf	-0.06673943
36	0x3fcadb62	1.58482
37	0x3c8355d4	0.016032137
38	0x3d1659bf	0.036706682
39	0xbea66d3b	-0.3250521
40	0xbeee5e8a	-0.46556503
41	0xbc7b9b04	-0.015356783
42	0xbdf5895f	-0.11989092
43	0xbd354ff3	-0.0442657
44	0x3fd597b1	1.6686918
45	0x3be3b589	0.006949131
46	0x3f4596fb	0.771835
47	0xbdd57316	-0.104223415
48	0xbe4799f1	-0.19492318
49	0xbeaa1ed3	-0.33226642
50	0xbdb20e96	-0.08694188
51	0xbd98e6f4	-0.07465926
52	0xbd273359	-0.040820453
53	0x3e8a3c44	0.26999104
54	0xbd193da8	-0.037412316
55	0xbd89e38a	-0.06732853
56	0xbd9d3216	-0.07675569
57	0x3fda7742	1.7067645
58	0xbea918dd	-0.33026782
59	0xbe1ef6f1	-0.15523888
60	0x3d5c3406	0.05376055
61	0xbde7acce	-0.11312257
62	0xbdec39d5	-0.11534468
63	0xbda2e925	-0.07954625
64	0x3d8bb73c	0.068220586
65	0xbd7926d0	-0.06082803
66	0x3fa86d00	1.3158264
67	0x3dae1ed3	0.08501973
68	0xbd9132f1	-0.070897944
69	0xbe1934da	-0.14961568
70	0xbd51ab9d	-0.051189054
71	0xbe654191	-0.22388293
72	0xbeb3bea1	-0.35106376
73	0xbc575311	-0.013142363
74	0xbd0730e0	-0.033005595
75	0xbe550cf0	-0.20805717
76	0x3fb38136	1.4023807
77	0xbe143909	-0.14474882
78	0xbe833be4	-0.2563163
79	0xbd56cfca	-0.052444257
80	0xbdb332b1	-0.08749903
81	0x3cb80aa1	0.022466006
82	0xbe0c0242	-0.13672736
83	0xbcedd7be	-0.029033538
84	0xbe0d2f67	-0.13787614
85	0xbe4cf3d6	-0.20014891
86	0xbe482e3f	-0.19548891
87	0xbe17502b	-0.14776675
88	0x3a96a4d9	0.001149322
89	0xbe129430	-0.14314342
90	0xbded4ec8	-0.11587292
91	0xbe8154fc	-0.2526015
92	0xbdd3d838	-0.10343975
93	0x3f1b88b8	0.6075549
94	0x3f27c9ec	0.65542483
95	0xbd53cd63	-0.051709544
96	0x3d0226ef	0.03177541
97	0x3b810702	0.003937603
98	0xbe3f44a7	-0.18678533
99	0xbe5881c3	-0.2114325

fc3.weight f4 [1, 100]
0	0x3b9f60b8	0.0048638247
1	0x3d39cddc	0.04536234
2	0xbe808147	-0.2509863
3	0xbc1e8fda	-0.009677852
4	0x3b43ce4a	0.0029877597
5	0xb9de4cea	-0.00042400445
6	0x3c80e329	0.015733318
7	0xbcdd447b	-0.027010193
8	0xbb11441f	-0.0022165847
9	0xba285259	-0.0006420962
10	0xbc35188a	-0.011053214
11	0xba406890	-0.00073398
12	0x3b23f5a0	0.002501823
13	0xbc2295b9	-0.009923392
14	0xbcc54d18	-0.024084613
15	0xbc5cbfab	-0.013473432
16	0xba90c758	-0.0011045737
17	0xbc69b973	-0.014265406
18	0x39d4f6cd	0.00040619672
19	0xba7b7494	-0.00095922616
20	0x3bcbaffe	0.0062160483
21	0x3afbbc25	0.0019205852
22	0x3b87a0f6	0.004139061
23	0x39c8949f	0.00038257704
24	0x3c44fe9d	0.012023595
25	0x3ade6efe	0.0016970334
26	0xbb26d613	-0.0025457188
27	0xbd0d9ae7	-0.034571555
28	0x3d490155	0.049073536
29	0xbb87b508	-0.0041414537
30	0xbcad39ce	-0.021145727
31	0xba8f1e3e	-0.0010919047
32	0xbcf83918	-0.030300662
33	0xbdace1c5	-0.084414996
34	0xbc083d08	-0.008315332
35	0xbc520cbc	-0.012820419
36	0x3ef28d44	0.47373402
37	0x3cd80791	0.026370795
38	0x38d59349	0.000101840655
39	0x3e3dde8a	0.18541923
40	0xbe7379fd	-0.23777004
41	0x3dbaea94	0.091267735
42	0xba73e73b	-0.00093041704
43	0xbb6d97d1	-0.003625382
44	0xbeedc061	-0.46435836
45	0xb88635c2	-6.399631e-05
46	0x3c52a927	0.012857712
47	0xbd1020ce	-0.035187535
48	0x3e48132b	0.19538562
49	0x3dad75f7	0.08469766
50	0xbac52d56	-0.0015043418
51	0x3c6748b9	0.0141164595
52	0xba802b09	-0.000977845
53	0xb9c2ac23	-0.00037130815
54	0x3b265217	0.002537852
55	0xbbb228ce	-0.005436993
56	0x3e895aa3	0.26826963
57	0x3f109bac	0.56487536
58	0x3d0d9b0b	0.03457169
59	0x3bb222f9	0.005436298
60	0x3bcc6dae	0.006238661
61	0xbb5da594	-0.0033820616
62	0x3a5a957d	0.00083383155
63	0x3cced67d	0.02524876
64	0x38ba7cd8	8.892425e-05
65	0xbc06c61e	-0.008225946
66	0x3e72dc21	0.23716785
67	0x3b1a27e8	0.002352232
68	0xbd44c233	-0.048036765
69	0xbd6f1ed5	-0.058379013
70	0xbc818570	-0.015810698
71	0x3a2c78cb	0.0006579279
72	0xbe318833	-0.17337112
73	0xba3f85d3	-0.0007306013
74	0x3acfca55	0.0015853146
75	0xbaa53d06	-0.0012606687
76	0xbed2d0e6	-0.41175002
77	0xbc8ad6b6	-0.016948085
78	0x3e450876	0.19241509
79	0x39eb2b2b	0.00044854856
80	0x3af954ee	0.0019022503
81	0x3ca8649a	0.020555783
82	0x3b68d2fe	0.0035526152
83	0x3a7a8a98	0.0009557395
84	0x3a49bcec	0.0007695693
85	0xbd2b8c4f	-0.041881856
86	0xbb3248f6	-0.0027204133
87	0xba20925f	-0.00061253266
88	0x3a8cc18f	0.0010738837
89	0xbc191cef	-0.009345277
90	0x3d42cf59	0.047561023
91	0x3e81ffc7	0.25390455
92	0xb9832e75	-0.0002502088
93	0x3baf3e71	0.00534802
94	0x3bca5612	0.006174811
95	0xbd14816e	-0.036256246
96	0x3a51fbae	0.00080102205
97	0x3c0361e2	0.008018943
98	0x3e33b73d	0.17550369
99	0xbde30e85	-0.11086754
